____________________________________________________________________________________________________
Layer (type)                     Output Shape          Param #     Connected to                     
====================================================================================================
SI_input (InputLayer)            (None, 50, 1)         0                                            
____________________________________________________________________________________________________
SQ_input (InputLayer)            (None, 50, 1)         0                                            
____________________________________________________________________________________________________
SU_input (InputLayer)            (None, 50, 1)         0                                            
____________________________________________________________________________________________________
SV_input (InputLayer)            (None, 50, 1)         0                                            
____________________________________________________________________________________________________
convI_1 (Convolution1D)          (None, 48, 100)       400         SI_input[0][0]                   
____________________________________________________________________________________________________
convQ_1 (Convolution1D)          (None, 48, 100)       400         SQ_input[0][0]                   
____________________________________________________________________________________________________
convU_1 (Convolution1D)          (None, 48, 100)       400         SU_input[0][0]                   
____________________________________________________________________________________________________
convV_1 (Convolution1D)          (None, 48, 100)       400         SV_input[0][0]                   
____________________________________________________________________________________________________
convI_2 (Convolution1D)          (None, 48, 100)       30100       convI_1[0][0]                    
____________________________________________________________________________________________________
convQ_2 (Convolution1D)          (None, 48, 100)       30100       convQ_1[0][0]                    
____________________________________________________________________________________________________
convU_2 (Convolution1D)          (None, 48, 100)       30100       convU_1[0][0]                    
____________________________________________________________________________________________________
convV_2 (Convolution1D)          (None, 48, 100)       30100       convV_1[0][0]                    
____________________________________________________________________________________________________
poolI_1 (MaxPooling1D)           (None, 24, 100)       0           convI_2[0][0]                    
____________________________________________________________________________________________________
poolQ_1 (MaxPooling1D)           (None, 24, 100)       0           convQ_2[0][0]                    
____________________________________________________________________________________________________
poolU_1 (MaxPooling1D)           (None, 24, 100)       0           convU_2[0][0]                    
____________________________________________________________________________________________________
poolV_1 (MaxPooling1D)           (None, 24, 100)       0           convV_2[0][0]                    
____________________________________________________________________________________________________
convI_3 (Convolution1D)          (None, 24, 100)       30100       poolI_1[0][0]                    
____________________________________________________________________________________________________
convQ_3 (Convolution1D)          (None, 24, 100)       30100       poolQ_1[0][0]                    
____________________________________________________________________________________________________
convU_3 (Convolution1D)          (None, 24, 100)       30100       poolU_1[0][0]                    
____________________________________________________________________________________________________
convV_3 (Convolution1D)          (None, 24, 100)       30100       poolV_1[0][0]                    
____________________________________________________________________________________________________
poolI_2 (MaxPooling1D)           (None, 12, 100)       0           convI_3[0][0]                    
____________________________________________________________________________________________________
poolQ_2 (MaxPooling1D)           (None, 12, 100)       0           convQ_3[0][0]                    
____________________________________________________________________________________________________
poolU_2 (MaxPooling1D)           (None, 12, 100)       0           convU_3[0][0]                    
____________________________________________________________________________________________________
poolV_2 (MaxPooling1D)           (None, 12, 100)       0           convV_3[0][0]                    
____________________________________________________________________________________________________
convI_4 (Convolution1D)          (None, 12, 100)       30100       poolI_2[0][0]                    
____________________________________________________________________________________________________
convQ_4 (Convolution1D)          (None, 12, 100)       30100       poolQ_2[0][0]                    
____________________________________________________________________________________________________
convU_4 (Convolution1D)          (None, 12, 100)       30100       poolU_2[0][0]                    
____________________________________________________________________________________________________
convV_4 (Convolution1D)          (None, 12, 100)       30100       poolV_2[0][0]                    
____________________________________________________________________________________________________
poolI_3 (MaxPooling1D)           (None, 6, 100)        0           convI_4[0][0]                    
____________________________________________________________________________________________________
poolQ_3 (MaxPooling1D)           (None, 6, 100)        0           convQ_4[0][0]                    
____________________________________________________________________________________________________
poolU_3 (MaxPooling1D)           (None, 6, 100)        0           convU_4[0][0]                    
____________________________________________________________________________________________________
poolV_3 (MaxPooling1D)           (None, 6, 100)        0           convV_4[0][0]                    
____________________________________________________________________________________________________
flatI (Flatten)                  (None, 600)           0           poolI_3[0][0]                    
____________________________________________________________________________________________________
flatQ (Flatten)                  (None, 600)           0           poolQ_3[0][0]                    
____________________________________________________________________________________________________
flatU (Flatten)                  (None, 600)           0           poolU_3[0][0]                    
____________________________________________________________________________________________________
flatV (Flatten)                  (None, 600)           0           poolV_3[0][0]                    
____________________________________________________________________________________________________
FC (Merge)                       (None, 2400)          0           flatI[0][0]                      
                                                                   flatQ[0][0]                      
                                                                   flatU[0][0]                      
                                                                   flatV[0][0]                      
____________________________________________________________________________________________________
FC2 (Dense)                      (None, 200)           480200      FC[0][0]                         
____________________________________________________________________________________________________
out_BField (Dense)               (None, 50)            10050       FC2[0][0]                        
____________________________________________________________________________________________________
out_theta (Dense)                (None, 50)            10050       FC2[0][0]                        
____________________________________________________________________________________________________
out_chi (Dense)                  (None, 50)            10050       FC2[0][0]                        
____________________________________________________________________________________________________
out_vmac (Dense)                 (None, 30)            6030        FC2[0][0]                        
____________________________________________________________________________________________________
out_a (Dense)                    (None, 15)            3015        FC2[0][0]                        
____________________________________________________________________________________________________
out_B0 (Dense)                   (None, 20)            4020        FC2[0][0]                        
____________________________________________________________________________________________________
out_B1 (Dense)                   (None, 20)            4020        FC2[0][0]                        
____________________________________________________________________________________________________
out_doppler (Dense)              (None, 20)            4020        FC2[0][0]                        
____________________________________________________________________________________________________
out_kl (Dense)                   (None, 20)            4020        FC2[0][0]                        
====================================================================================================
Total params: 898275
____________________________________________________________________________________________________
