{"keras_version": "1.2.0", "class_name": "Model", "config": {"input_layers": [["input_1", 0, 0]], "layers": [{"inbound_nodes": [], "name": "input_1", "class_name": "InputLayer", "config": {"sparse": false, "batch_input_shape": [null, 50, 50, 2], "input_dtype": "float32", "name": "input_1"}}, {"inbound_nodes": [[["input_1", 0, 0]]], "name": "gaussiannoise_1", "class_name": "GaussianNoise", "config": {"sigma": 0.001, "trainable": true, "name": "gaussiannoise_1"}}, {"inbound_nodes": [[["gaussiannoise_1", 0, 0]]], "name": "convolution2d_1", "class_name": "Convolution2D", "config": {"subsample": [1, 1], "b_regularizer": null, "dim_ordering": "tf", "nb_row": 3, "nb_filter": 64, "border_mode": "same", "activity_regularizer": null, "b_constraint": null, "trainable": true, "nb_col": 3, "bias": true, "activation": "relu", "name": "convolution2d_1", "W_regularizer": null, "init": "he_normal", "W_constraint": null}}, {"inbound_nodes": [[["convolution2d_1", 0, 0]]], "name": "batchnormalization_1", "class_name": "BatchNormalization", "config": {"gamma_regularizer": null, "mode": 0, "name": "batchnormalization_1", "beta_regularizer": null, "axis": -1, "momentum": 0.99, "epsilon": 0.001, "trainable": true}}, {"inbound_nodes": [[["batchnormalization_1", 0, 0]]], "name": "activation_1", "class_name": "Activation", "config": {"activation": "relu", "trainable": true, "name": "activation_1"}}, {"inbound_nodes": [[["activation_1", 0, 0]]], "name": "convolution2d_2", "class_name": "Convolution2D", "config": {"subsample": [1, 1], "b_regularizer": null, "dim_ordering": "tf", "nb_row": 3, "nb_filter": 64, "border_mode": "same", "activity_regularizer": null, "b_constraint": null, "trainable": true, "nb_col": 3, "bias": true, "activation": "linear", "name": "convolution2d_2", "W_regularizer": null, "init": "he_normal", "W_constraint": null}}, {"inbound_nodes": [[["convolution2d_2", 0, 0]]], "name": "batchnormalization_2", "class_name": "BatchNormalization", "config": {"gamma_regularizer": null, "mode": 0, "name": "batchnormalization_2", "beta_regularizer": null, "axis": -1, "momentum": 0.99, "epsilon": 0.001, "trainable": true}}, {"inbound_nodes": [[["batchnormalization_2", 0, 0]]], "name": "activation_2", "class_name": "Activation", "config": {"activation": "relu", "trainable": true, "name": "activation_2"}}, {"inbound_nodes": [[["activation_2", 0, 0]]], "name": "convolution2d_3", "class_name": "Convolution2D", "config": {"subsample": [1, 1], "b_regularizer": null, "dim_ordering": "tf", "nb_row": 3, "nb_filter": 64, "border_mode": "same", "activity_regularizer": null, "b_constraint": null, "trainable": true, "nb_col": 3, "bias": true, "activation": "linear", "name": "convolution2d_3", "W_regularizer": null, "init": "he_normal", "W_constraint": null}}, {"inbound_nodes": [[["convolution2d_3", 0, 0], ["convolution2d_1", 0, 0]]], "name": "merge_1", "class_name": "Merge", "config": {"concat_axis": -1, "mode": "sum", "output_mask": null, "output_shape": null, "name": "merge_1", "arguments": {}, "output_shape_type": "raw", "dot_axes": -1, "output_mask_type": "raw", "mode_type": "raw"}}, {"inbound_nodes": [[["merge_1", 0, 0]]], "name": "batchnormalization_3", "class_name": "BatchNormalization", "config": {"gamma_regularizer": null, "mode": 0, "name": "batchnormalization_3", "beta_regularizer": null, "axis": -1, "momentum": 0.99, "epsilon": 0.001, "trainable": true}}, {"inbound_nodes": [[["batchnormalization_3", 0, 0]]], "name": "activation_3", "class_name": "Activation", "config": {"activation": "relu", "trainable": true, "name": "activation_3"}}, {"inbound_nodes": [[["activation_3", 0, 0]]], "name": "convolution2d_4", "class_name": "Convolution2D", "config": {"subsample": [1, 1], "b_regularizer": null, "dim_ordering": "tf", "nb_row": 3, "nb_filter": 64, "border_mode": "same", "activity_regularizer": null, "b_constraint": null, "trainable": true, "nb_col": 3, "bias": true, "activation": "linear", "name": "convolution2d_4", "W_regularizer": null, "init": "he_normal", "W_constraint": null}}, {"inbound_nodes": [[["convolution2d_4", 0, 0]]], "name": "batchnormalization_4", "class_name": "BatchNormalization", "config": {"gamma_regularizer": null, "mode": 0, "name": "batchnormalization_4", "beta_regularizer": null, "axis": -1, "momentum": 0.99, "epsilon": 0.001, "trainable": true}}, {"inbound_nodes": [[["batchnormalization_4", 0, 0]]], "name": "activation_4", "class_name": "Activation", "config": {"activation": "relu", "trainable": true, "name": "activation_4"}}, {"inbound_nodes": [[["activation_4", 0, 0]]], "name": "convolution2d_5", "class_name": "Convolution2D", "config": {"subsample": [1, 1], "b_regularizer": null, "dim_ordering": "tf", "nb_row": 3, "nb_filter": 64, "border_mode": "same", "activity_regularizer": null, "b_constraint": null, "trainable": true, "nb_col": 3, "bias": true, "activation": "linear", "name": "convolution2d_5", "W_regularizer": null, "init": "he_normal", "W_constraint": null}}, {"inbound_nodes": [[["convolution2d_5", 0, 0], ["merge_1", 0, 0]]], "name": "merge_2", "class_name": "Merge", "config": {"concat_axis": -1, "mode": "sum", "output_mask": null, "output_shape": null, "name": "merge_2", "arguments": {}, "output_shape_type": "raw", "dot_axes": -1, "output_mask_type": "raw", "mode_type": "raw"}}, {"inbound_nodes": [[["merge_2", 0, 0]]], "name": "batchnormalization_5", "class_name": "BatchNormalization", "config": {"gamma_regularizer": null, "mode": 0, "name": "batchnormalization_5", "beta_regularizer": null, "axis": -1, "momentum": 0.99, "epsilon": 0.001, "trainable": true}}, {"inbound_nodes": [[["batchnormalization_5", 0, 0]]], "name": "activation_5", "class_name": "Activation", "config": {"activation": "relu", "trainable": true, "name": "activation_5"}}, {"inbound_nodes": [[["activation_5", 0, 0]]], "name": "convolution2d_6", "class_name": "Convolution2D", "config": {"subsample": [1, 1], "b_regularizer": null, "dim_ordering": "tf", "nb_row": 3, "nb_filter": 64, "border_mode": "same", "activity_regularizer": null, "b_constraint": null, "trainable": true, "nb_col": 3, "bias": true, "activation": "linear", "name": "convolution2d_6", "W_regularizer": null, "init": "he_normal", "W_constraint": null}}, {"inbound_nodes": [[["convolution2d_6", 0, 0]]], "name": "batchnormalization_6", "class_name": "BatchNormalization", "config": {"gamma_regularizer": null, "mode": 0, "name": "batchnormalization_6", "beta_regularizer": null, "axis": -1, "momentum": 0.99, "epsilon": 0.001, "trainable": true}}, {"inbound_nodes": [[["batchnormalization_6", 0, 0]]], "name": "activation_6", "class_name": "Activation", "config": {"activation": "relu", "trainable": true, "name": "activation_6"}}, {"inbound_nodes": [[["activation_6", 0, 0]]], "name": "convolution2d_7", "class_name": "Convolution2D", "config": {"subsample": [1, 1], "b_regularizer": null, "dim_ordering": "tf", "nb_row": 3, "nb_filter": 64, "border_mode": "same", "activity_regularizer": null, "b_constraint": null, "trainable": true, "nb_col": 3, "bias": true, "activation": "linear", "name": "convolution2d_7", "W_regularizer": null, "init": "he_normal", "W_constraint": null}}, {"inbound_nodes": [[["convolution2d_7", 0, 0], ["merge_2", 0, 0]]], "name": "merge_3", "class_name": "Merge", "config": {"concat_axis": -1, "mode": "sum", "output_mask": null, "output_shape": null, "name": "merge_3", "arguments": {}, "output_shape_type": "raw", "dot_axes": -1, "output_mask_type": "raw", "mode_type": "raw"}}, {"inbound_nodes": [[["merge_3", 0, 0]]], "name": "batchnormalization_7", "class_name": "BatchNormalization", "config": {"gamma_regularizer": null, "mode": 0, "name": "batchnormalization_7", "beta_regularizer": null, "axis": -1, "momentum": 0.99, "epsilon": 0.001, "trainable": true}}, {"inbound_nodes": [[["batchnormalization_7", 0, 0]]], "name": "activation_7", "class_name": "Activation", "config": {"activation": "relu", "trainable": true, "name": "activation_7"}}, {"inbound_nodes": [[["activation_7", 0, 0]]], "name": "convolution2d_8", "class_name": "Convolution2D", "config": {"subsample": [1, 1], "b_regularizer": null, "dim_ordering": "tf", "nb_row": 3, "nb_filter": 64, "border_mode": "same", "activity_regularizer": null, "b_constraint": null, "trainable": true, "nb_col": 3, "bias": true, "activation": "linear", "name": "convolution2d_8", "W_regularizer": null, "init": "he_normal", "W_constraint": null}}, {"inbound_nodes": [[["convolution2d_8", 0, 0]]], "name": "batchnormalization_8", "class_name": "BatchNormalization", "config": {"gamma_regularizer": null, "mode": 0, "name": "batchnormalization_8", "beta_regularizer": null, "axis": -1, "momentum": 0.99, "epsilon": 0.001, "trainable": true}}, {"inbound_nodes": [[["batchnormalization_8", 0, 0]]], "name": "activation_8", "class_name": "Activation", "config": {"activation": "relu", "trainable": true, "name": "activation_8"}}, {"inbound_nodes": [[["activation_8", 0, 0]]], "name": "convolution2d_9", "class_name": "Convolution2D", "config": {"subsample": [1, 1], "b_regularizer": null, "dim_ordering": "tf", "nb_row": 3, "nb_filter": 64, "border_mode": "same", "activity_regularizer": null, "b_constraint": null, "trainable": true, "nb_col": 3, "bias": true, "activation": "linear", "name": "convolution2d_9", "W_regularizer": null, "init": "he_normal", "W_constraint": null}}, {"inbound_nodes": [[["convolution2d_9", 0, 0], ["merge_3", 0, 0]]], "name": "merge_4", "class_name": "Merge", "config": {"concat_axis": -1, "mode": "sum", "output_mask": null, "output_shape": null, "name": "merge_4", "arguments": {}, "output_shape_type": "raw", "dot_axes": -1, "output_mask_type": "raw", "mode_type": "raw"}}, {"inbound_nodes": [[["merge_4", 0, 0]]], "name": "batchnormalization_9", "class_name": "BatchNormalization", "config": {"gamma_regularizer": null, "mode": 0, "name": "batchnormalization_9", "beta_regularizer": null, "axis": -1, "momentum": 0.99, "epsilon": 0.001, "trainable": true}}, {"inbound_nodes": [[["batchnormalization_9", 0, 0]]], "name": "activation_9", "class_name": "Activation", "config": {"activation": "relu", "trainable": true, "name": "activation_9"}}, {"inbound_nodes": [[["activation_9", 0, 0]]], "name": "convolution2d_10", "class_name": "Convolution2D", "config": {"subsample": [1, 1], "b_regularizer": null, "dim_ordering": "tf", "nb_row": 3, "nb_filter": 64, "border_mode": "same", "activity_regularizer": null, "b_constraint": null, "trainable": true, "nb_col": 3, "bias": true, "activation": "linear", "name": "convolution2d_10", "W_regularizer": null, "init": "he_normal", "W_constraint": null}}, {"inbound_nodes": [[["convolution2d_10", 0, 0]]], "name": "batchnormalization_10", "class_name": "BatchNormalization", "config": {"gamma_regularizer": null, "mode": 0, "name": "batchnormalization_10", "beta_regularizer": null, "axis": -1, "momentum": 0.99, "epsilon": 0.001, "trainable": true}}, {"inbound_nodes": [[["batchnormalization_10", 0, 0]]], "name": "activation_10", "class_name": "Activation", "config": {"activation": "relu", "trainable": true, "name": "activation_10"}}, {"inbound_nodes": [[["activation_10", 0, 0]]], "name": "convolution2d_11", "class_name": "Convolution2D", "config": {"subsample": [1, 1], "b_regularizer": null, "dim_ordering": "tf", "nb_row": 3, "nb_filter": 64, "border_mode": "same", "activity_regularizer": null, "b_constraint": null, "trainable": true, "nb_col": 3, "bias": true, "activation": "linear", "name": "convolution2d_11", "W_regularizer": null, "init": "he_normal", "W_constraint": null}}, {"inbound_nodes": [[["convolution2d_11", 0, 0], ["merge_4", 0, 0]]], "name": "merge_5", "class_name": "Merge", "config": {"concat_axis": -1, "mode": "sum", "output_mask": null, "output_shape": null, "name": "merge_5", "arguments": {}, "output_shape_type": "raw", "dot_axes": -1, "output_mask_type": "raw", "mode_type": "raw"}}, {"inbound_nodes": [[["merge_5", 0, 0]]], "name": "batchnormalization_11", "class_name": "BatchNormalization", "config": {"gamma_regularizer": null, "mode": 0, "name": "batchnormalization_11", "beta_regularizer": null, "axis": -1, "momentum": 0.99, "epsilon": 0.001, "trainable": true}}, {"inbound_nodes": [[["batchnormalization_11", 0, 0]]], "name": "activation_11", "class_name": "Activation", "config": {"activation": "relu", "trainable": true, "name": "activation_11"}}, {"inbound_nodes": [[["activation_11", 0, 0]]], "name": "convolution2d_12", "class_name": "Convolution2D", "config": {"subsample": [1, 1], "b_regularizer": null, "dim_ordering": "tf", "nb_row": 3, "nb_filter": 64, "border_mode": "same", "activity_regularizer": null, "b_constraint": null, "trainable": true, "nb_col": 3, "bias": true, "activation": "linear", "name": "convolution2d_12", "W_regularizer": null, "init": "he_normal", "W_constraint": null}}, {"inbound_nodes": [[["convolution2d_12", 0, 0]]], "name": "batchnormalization_12", "class_name": "BatchNormalization", "config": {"gamma_regularizer": null, "mode": 0, "name": "batchnormalization_12", "beta_regularizer": null, "axis": -1, "momentum": 0.99, "epsilon": 0.001, "trainable": true}}, {"inbound_nodes": [[["batchnormalization_12", 0, 0]]], "name": "activation_12", "class_name": "Activation", "config": {"activation": "relu", "trainable": true, "name": "activation_12"}}, {"inbound_nodes": [[["activation_12", 0, 0]]], "name": "convolution2d_13", "class_name": "Convolution2D", "config": {"subsample": [1, 1], "b_regularizer": null, "dim_ordering": "tf", "nb_row": 3, "nb_filter": 64, "border_mode": "same", "activity_regularizer": null, "b_constraint": null, "trainable": true, "nb_col": 3, "bias": true, "activation": "linear", "name": "convolution2d_13", "W_regularizer": null, "init": "he_normal", "W_constraint": null}}, {"inbound_nodes": [[["convolution2d_13", 0, 0], ["merge_5", 0, 0]]], "name": "merge_6", "class_name": "Merge", "config": {"concat_axis": -1, "mode": "sum", "output_mask": null, "output_shape": null, "name": "merge_6", "arguments": {}, "output_shape_type": "raw", "dot_axes": -1, "output_mask_type": "raw", "mode_type": "raw"}}, {"inbound_nodes": [[["merge_6", 0, 0]]], "name": "batchnormalization_13", "class_name": "BatchNormalization", "config": {"gamma_regularizer": null, "mode": 0, "name": "batchnormalization_13", "beta_regularizer": null, "axis": -1, "momentum": 0.99, "epsilon": 0.001, "trainable": true}}, {"inbound_nodes": [[["batchnormalization_13", 0, 0]]], "name": "activation_13", "class_name": "Activation", "config": {"activation": "relu", "trainable": true, "name": "activation_13"}}, {"inbound_nodes": [[["activation_13", 0, 0]]], "name": "convolution2d_14", "class_name": "Convolution2D", "config": {"subsample": [1, 1], "b_regularizer": null, "dim_ordering": "tf", "nb_row": 3, "nb_filter": 64, "border_mode": "same", "activity_regularizer": null, "b_constraint": null, "trainable": true, "nb_col": 3, "bias": true, "activation": "linear", "name": "convolution2d_14", "W_regularizer": null, "init": "he_normal", "W_constraint": null}}, {"inbound_nodes": [[["convolution2d_14", 0, 0]]], "name": "batchnormalization_14", "class_name": "BatchNormalization", "config": {"gamma_regularizer": null, "mode": 0, "name": "batchnormalization_14", "beta_regularizer": null, "axis": -1, "momentum": 0.99, "epsilon": 0.001, "trainable": true}}, {"inbound_nodes": [[["batchnormalization_14", 0, 0]]], "name": "activation_14", "class_name": "Activation", "config": {"activation": "relu", "trainable": true, "name": "activation_14"}}, {"inbound_nodes": [[["activation_14", 0, 0]]], "name": "convolution2d_15", "class_name": "Convolution2D", "config": {"subsample": [1, 1], "b_regularizer": null, "dim_ordering": "tf", "nb_row": 3, "nb_filter": 64, "border_mode": "same", "activity_regularizer": null, "b_constraint": null, "trainable": true, "nb_col": 3, "bias": true, "activation": "linear", "name": "convolution2d_15", "W_regularizer": null, "init": "he_normal", "W_constraint": null}}, {"inbound_nodes": [[["convolution2d_15", 0, 0], ["merge_6", 0, 0]]], "name": "merge_7", "class_name": "Merge", "config": {"concat_axis": -1, "mode": "sum", "output_mask": null, "output_shape": null, "name": "merge_7", "arguments": {}, "output_shape_type": "raw", "dot_axes": -1, "output_mask_type": "raw", "mode_type": "raw"}}, {"inbound_nodes": [[["merge_7", 0, 0]]], "name": "batchnormalization_15", "class_name": "BatchNormalization", "config": {"gamma_regularizer": null, "mode": 0, "name": "batchnormalization_15", "beta_regularizer": null, "axis": -1, "momentum": 0.99, "epsilon": 0.001, "trainable": true}}, {"inbound_nodes": [[["batchnormalization_15", 0, 0]]], "name": "activation_15", "class_name": "Activation", "config": {"activation": "relu", "trainable": true, "name": "activation_15"}}, {"inbound_nodes": [[["activation_15", 0, 0]]], "name": "convolution2d_16", "class_name": "Convolution2D", "config": {"subsample": [1, 1], "b_regularizer": null, "dim_ordering": "tf", "nb_row": 3, "nb_filter": 64, "border_mode": "same", "activity_regularizer": null, "b_constraint": null, "trainable": true, "nb_col": 3, "bias": true, "activation": "linear", "name": "convolution2d_16", "W_regularizer": null, "init": "he_normal", "W_constraint": null}}, {"inbound_nodes": [[["convolution2d_16", 0, 0]]], "name": "batchnormalization_16", "class_name": "BatchNormalization", "config": {"gamma_regularizer": null, "mode": 0, "name": "batchnormalization_16", "beta_regularizer": null, "axis": -1, "momentum": 0.99, "epsilon": 0.001, "trainable": true}}, {"inbound_nodes": [[["batchnormalization_16", 0, 0]]], "name": "activation_16", "class_name": "Activation", "config": {"activation": "relu", "trainable": true, "name": "activation_16"}}, {"inbound_nodes": [[["activation_16", 0, 0]]], "name": "convolution2d_17", "class_name": "Convolution2D", "config": {"subsample": [1, 1], "b_regularizer": null, "dim_ordering": "tf", "nb_row": 3, "nb_filter": 64, "border_mode": "same", "activity_regularizer": null, "b_constraint": null, "trainable": true, "nb_col": 3, "bias": true, "activation": "linear", "name": "convolution2d_17", "W_regularizer": null, "init": "he_normal", "W_constraint": null}}, {"inbound_nodes": [[["convolution2d_17", 0, 0], ["merge_7", 0, 0]]], "name": "merge_8", "class_name": "Merge", "config": {"concat_axis": -1, "mode": "sum", "output_mask": null, "output_shape": null, "name": "merge_8", "arguments": {}, "output_shape_type": "raw", "dot_axes": -1, "output_mask_type": "raw", "mode_type": "raw"}}, {"inbound_nodes": [[["merge_8", 0, 0]]], "name": "batchnormalization_17", "class_name": "BatchNormalization", "config": {"gamma_regularizer": null, "mode": 0, "name": "batchnormalization_17", "beta_regularizer": null, "axis": -1, "momentum": 0.99, "epsilon": 0.001, "trainable": true}}, {"inbound_nodes": [[["batchnormalization_17", 0, 0]]], "name": "activation_17", "class_name": "Activation", "config": {"activation": "relu", "trainable": true, "name": "activation_17"}}, {"inbound_nodes": [[["activation_17", 0, 0]]], "name": "convolution2d_18", "class_name": "Convolution2D", "config": {"subsample": [1, 1], "b_regularizer": null, "dim_ordering": "tf", "nb_row": 3, "nb_filter": 64, "border_mode": "same", "activity_regularizer": null, "b_constraint": null, "trainable": true, "nb_col": 3, "bias": true, "activation": "linear", "name": "convolution2d_18", "W_regularizer": null, "init": "he_normal", "W_constraint": null}}, {"inbound_nodes": [[["convolution2d_18", 0, 0]]], "name": "batchnormalization_18", "class_name": "BatchNormalization", "config": {"gamma_regularizer": null, "mode": 0, "name": "batchnormalization_18", "beta_regularizer": null, "axis": -1, "momentum": 0.99, "epsilon": 0.001, "trainable": true}}, {"inbound_nodes": [[["batchnormalization_18", 0, 0]]], "name": "activation_18", "class_name": "Activation", "config": {"activation": "relu", "trainable": true, "name": "activation_18"}}, {"inbound_nodes": [[["activation_18", 0, 0]]], "name": "convolution2d_19", "class_name": "Convolution2D", "config": {"subsample": [1, 1], "b_regularizer": null, "dim_ordering": "tf", "nb_row": 3, "nb_filter": 64, "border_mode": "same", "activity_regularizer": null, "b_constraint": null, "trainable": true, "nb_col": 3, "bias": true, "activation": "linear", "name": "convolution2d_19", "W_regularizer": null, "init": "he_normal", "W_constraint": null}}, {"inbound_nodes": [[["convolution2d_19", 0, 0], ["merge_8", 0, 0]]], "name": "merge_9", "class_name": "Merge", "config": {"concat_axis": -1, "mode": "sum", "output_mask": null, "output_shape": null, "name": "merge_9", "arguments": {}, "output_shape_type": "raw", "dot_axes": -1, "output_mask_type": "raw", "mode_type": "raw"}}, {"inbound_nodes": [[["merge_9", 0, 0]]], "name": "batchnormalization_19", "class_name": "BatchNormalization", "config": {"gamma_regularizer": null, "mode": 0, "name": "batchnormalization_19", "beta_regularizer": null, "axis": -1, "momentum": 0.99, "epsilon": 0.001, "trainable": true}}, {"inbound_nodes": [[["batchnormalization_19", 0, 0]]], "name": "activation_19", "class_name": "Activation", "config": {"activation": "relu", "trainable": true, "name": "activation_19"}}, {"inbound_nodes": [[["activation_19", 0, 0]]], "name": "convolution2d_20", "class_name": "Convolution2D", "config": {"subsample": [1, 1], "b_regularizer": null, "dim_ordering": "tf", "nb_row": 3, "nb_filter": 64, "border_mode": "same", "activity_regularizer": null, "b_constraint": null, "trainable": true, "nb_col": 3, "bias": true, "activation": "linear", "name": "convolution2d_20", "W_regularizer": null, "init": "he_normal", "W_constraint": null}}, {"inbound_nodes": [[["convolution2d_20", 0, 0]]], "name": "batchnormalization_20", "class_name": "BatchNormalization", "config": {"gamma_regularizer": null, "mode": 0, "name": "batchnormalization_20", "beta_regularizer": null, "axis": -1, "momentum": 0.99, "epsilon": 0.001, "trainable": true}}, {"inbound_nodes": [[["batchnormalization_20", 0, 0]]], "name": "activation_20", "class_name": "Activation", "config": {"activation": "relu", "trainable": true, "name": "activation_20"}}, {"inbound_nodes": [[["activation_20", 0, 0]]], "name": "convolution2d_21", "class_name": "Convolution2D", "config": {"subsample": [1, 1], "b_regularizer": null, "dim_ordering": "tf", "nb_row": 3, "nb_filter": 64, "border_mode": "same", "activity_regularizer": null, "b_constraint": null, "trainable": true, "nb_col": 3, "bias": true, "activation": "linear", "name": "convolution2d_21", "W_regularizer": null, "init": "he_normal", "W_constraint": null}}, {"inbound_nodes": [[["convolution2d_21", 0, 0], ["merge_9", 0, 0]]], "name": "merge_10", "class_name": "Merge", "config": {"concat_axis": -1, "mode": "sum", "output_mask": null, "output_shape": null, "name": "merge_10", "arguments": {}, "output_shape_type": "raw", "dot_axes": -1, "output_mask_type": "raw", "mode_type": "raw"}}, {"inbound_nodes": [[["merge_10", 0, 0]]], "name": "batchnormalization_21", "class_name": "BatchNormalization", "config": {"gamma_regularizer": null, "mode": 0, "name": "batchnormalization_21", "beta_regularizer": null, "axis": -1, "momentum": 0.99, "epsilon": 0.001, "trainable": true}}, {"inbound_nodes": [[["batchnormalization_21", 0, 0]]], "name": "activation_21", "class_name": "Activation", "config": {"activation": "relu", "trainable": true, "name": "activation_21"}}, {"inbound_nodes": [[["activation_21", 0, 0]]], "name": "convolution2d_22", "class_name": "Convolution2D", "config": {"subsample": [1, 1], "b_regularizer": null, "dim_ordering": "tf", "nb_row": 3, "nb_filter": 64, "border_mode": "same", "activity_regularizer": null, "b_constraint": null, "trainable": true, "nb_col": 3, "bias": true, "activation": "linear", "name": "convolution2d_22", "W_regularizer": null, "init": "he_normal", "W_constraint": null}}, {"inbound_nodes": [[["convolution2d_22", 0, 0]]], "name": "batchnormalization_22", "class_name": "BatchNormalization", "config": {"gamma_regularizer": null, "mode": 0, "name": "batchnormalization_22", "beta_regularizer": null, "axis": -1, "momentum": 0.99, "epsilon": 0.001, "trainable": true}}, {"inbound_nodes": [[["batchnormalization_22", 0, 0]]], "name": "activation_22", "class_name": "Activation", "config": {"activation": "relu", "trainable": true, "name": "activation_22"}}, {"inbound_nodes": [[["activation_22", 0, 0]]], "name": "convolution2d_23", "class_name": "Convolution2D", "config": {"subsample": [1, 1], "b_regularizer": null, "dim_ordering": "tf", "nb_row": 3, "nb_filter": 64, "border_mode": "same", "activity_regularizer": null, "b_constraint": null, "trainable": true, "nb_col": 3, "bias": true, "activation": "linear", "name": "convolution2d_23", "W_regularizer": null, "init": "he_normal", "W_constraint": null}}, {"inbound_nodes": [[["convolution2d_23", 0, 0], ["merge_10", 0, 0]]], "name": "merge_11", "class_name": "Merge", "config": {"concat_axis": -1, "mode": "sum", "output_mask": null, "output_shape": null, "name": "merge_11", "arguments": {}, "output_shape_type": "raw", "dot_axes": -1, "output_mask_type": "raw", "mode_type": "raw"}}, {"inbound_nodes": [[["merge_11", 0, 0]]], "name": "batchnormalization_23", "class_name": "BatchNormalization", "config": {"gamma_regularizer": null, "mode": 0, "name": "batchnormalization_23", "beta_regularizer": null, "axis": -1, "momentum": 0.99, "epsilon": 0.001, "trainable": true}}, {"inbound_nodes": [[["batchnormalization_23", 0, 0]]], "name": "activation_23", "class_name": "Activation", "config": {"activation": "relu", "trainable": true, "name": "activation_23"}}, {"inbound_nodes": [[["activation_23", 0, 0]]], "name": "convolution2d_24", "class_name": "Convolution2D", "config": {"subsample": [1, 1], "b_regularizer": null, "dim_ordering": "tf", "nb_row": 3, "nb_filter": 64, "border_mode": "same", "activity_regularizer": null, "b_constraint": null, "trainable": true, "nb_col": 3, "bias": true, "activation": "linear", "name": "convolution2d_24", "W_regularizer": null, "init": "he_normal", "W_constraint": null}}, {"inbound_nodes": [[["convolution2d_24", 0, 0]]], "name": "batchnormalization_24", "class_name": "BatchNormalization", "config": {"gamma_regularizer": null, "mode": 0, "name": "batchnormalization_24", "beta_regularizer": null, "axis": -1, "momentum": 0.99, "epsilon": 0.001, "trainable": true}}, {"inbound_nodes": [[["batchnormalization_24", 0, 0]]], "name": "activation_24", "class_name": "Activation", "config": {"activation": "relu", "trainable": true, "name": "activation_24"}}, {"inbound_nodes": [[["activation_24", 0, 0]]], "name": "convolution2d_25", "class_name": "Convolution2D", "config": {"subsample": [1, 1], "b_regularizer": null, "dim_ordering": "tf", "nb_row": 3, "nb_filter": 64, "border_mode": "same", "activity_regularizer": null, "b_constraint": null, "trainable": true, "nb_col": 3, "bias": true, "activation": "linear", "name": "convolution2d_25", "W_regularizer": null, "init": "he_normal", "W_constraint": null}}, {"inbound_nodes": [[["convolution2d_25", 0, 0], ["merge_11", 0, 0]]], "name": "merge_12", "class_name": "Merge", "config": {"concat_axis": -1, "mode": "sum", "output_mask": null, "output_shape": null, "name": "merge_12", "arguments": {}, "output_shape_type": "raw", "dot_axes": -1, "output_mask_type": "raw", "mode_type": "raw"}}, {"inbound_nodes": [[["merge_12", 0, 0]]], "name": "batchnormalization_25", "class_name": "BatchNormalization", "config": {"gamma_regularizer": null, "mode": 0, "name": "batchnormalization_25", "beta_regularizer": null, "axis": -1, "momentum": 0.99, "epsilon": 0.001, "trainable": true}}, {"inbound_nodes": [[["batchnormalization_25", 0, 0]]], "name": "activation_25", "class_name": "Activation", "config": {"activation": "relu", "trainable": true, "name": "activation_25"}}, {"inbound_nodes": [[["activation_25", 0, 0]]], "name": "convolution2d_26", "class_name": "Convolution2D", "config": {"subsample": [1, 1], "b_regularizer": null, "dim_ordering": "tf", "nb_row": 3, "nb_filter": 64, "border_mode": "same", "activity_regularizer": null, "b_constraint": null, "trainable": true, "nb_col": 3, "bias": true, "activation": "linear", "name": "convolution2d_26", "W_regularizer": null, "init": "he_normal", "W_constraint": null}}, {"inbound_nodes": [[["convolution2d_26", 0, 0]]], "name": "batchnormalization_26", "class_name": "BatchNormalization", "config": {"gamma_regularizer": null, "mode": 0, "name": "batchnormalization_26", "beta_regularizer": null, "axis": -1, "momentum": 0.99, "epsilon": 0.001, "trainable": true}}, {"inbound_nodes": [[["batchnormalization_26", 0, 0]]], "name": "activation_26", "class_name": "Activation", "config": {"activation": "relu", "trainable": true, "name": "activation_26"}}, {"inbound_nodes": [[["activation_26", 0, 0]]], "name": "convolution2d_27", "class_name": "Convolution2D", "config": {"subsample": [1, 1], "b_regularizer": null, "dim_ordering": "tf", "nb_row": 3, "nb_filter": 64, "border_mode": "same", "activity_regularizer": null, "b_constraint": null, "trainable": true, "nb_col": 3, "bias": true, "activation": "linear", "name": "convolution2d_27", "W_regularizer": null, "init": "he_normal", "W_constraint": null}}, {"inbound_nodes": [[["convolution2d_27", 0, 0], ["merge_12", 0, 0]]], "name": "merge_13", "class_name": "Merge", "config": {"concat_axis": -1, "mode": "sum", "output_mask": null, "output_shape": null, "name": "merge_13", "arguments": {}, "output_shape_type": "raw", "dot_axes": -1, "output_mask_type": "raw", "mode_type": "raw"}}, {"inbound_nodes": [[["merge_13", 0, 0]]], "name": "batchnormalization_27", "class_name": "BatchNormalization", "config": {"gamma_regularizer": null, "mode": 0, "name": "batchnormalization_27", "beta_regularizer": null, "axis": -1, "momentum": 0.99, "epsilon": 0.001, "trainable": true}}, {"inbound_nodes": [[["batchnormalization_27", 0, 0]]], "name": "activation_27", "class_name": "Activation", "config": {"activation": "relu", "trainable": true, "name": "activation_27"}}, {"inbound_nodes": [[["activation_27", 0, 0]]], "name": "convolution2d_28", "class_name": "Convolution2D", "config": {"subsample": [1, 1], "b_regularizer": null, "dim_ordering": "tf", "nb_row": 3, "nb_filter": 64, "border_mode": "same", "activity_regularizer": null, "b_constraint": null, "trainable": true, "nb_col": 3, "bias": true, "activation": "linear", "name": "convolution2d_28", "W_regularizer": null, "init": "he_normal", "W_constraint": null}}, {"inbound_nodes": [[["convolution2d_28", 0, 0]]], "name": "batchnormalization_28", "class_name": "BatchNormalization", "config": {"gamma_regularizer": null, "mode": 0, "name": "batchnormalization_28", "beta_regularizer": null, "axis": -1, "momentum": 0.99, "epsilon": 0.001, "trainable": true}}, {"inbound_nodes": [[["batchnormalization_28", 0, 0]]], "name": "activation_28", "class_name": "Activation", "config": {"activation": "relu", "trainable": true, "name": "activation_28"}}, {"inbound_nodes": [[["activation_28", 0, 0]]], "name": "convolution2d_29", "class_name": "Convolution2D", "config": {"subsample": [1, 1], "b_regularizer": null, "dim_ordering": "tf", "nb_row": 3, "nb_filter": 64, "border_mode": "same", "activity_regularizer": null, "b_constraint": null, "trainable": true, "nb_col": 3, "bias": true, "activation": "linear", "name": "convolution2d_29", "W_regularizer": null, "init": "he_normal", "W_constraint": null}}, {"inbound_nodes": [[["convolution2d_29", 0, 0], ["merge_13", 0, 0]]], "name": "merge_14", "class_name": "Merge", "config": {"concat_axis": -1, "mode": "sum", "output_mask": null, "output_shape": null, "name": "merge_14", "arguments": {}, "output_shape_type": "raw", "dot_axes": -1, "output_mask_type": "raw", "mode_type": "raw"}}, {"inbound_nodes": [[["merge_14", 0, 0]]], "name": "batchnormalization_29", "class_name": "BatchNormalization", "config": {"gamma_regularizer": null, "mode": 0, "name": "batchnormalization_29", "beta_regularizer": null, "axis": -1, "momentum": 0.99, "epsilon": 0.001, "trainable": true}}, {"inbound_nodes": [[["batchnormalization_29", 0, 0]]], "name": "activation_29", "class_name": "Activation", "config": {"activation": "relu", "trainable": true, "name": "activation_29"}}, {"inbound_nodes": [[["activation_29", 0, 0]]], "name": "convolution2d_30", "class_name": "Convolution2D", "config": {"subsample": [1, 1], "b_regularizer": null, "dim_ordering": "tf", "nb_row": 3, "nb_filter": 64, "border_mode": "same", "activity_regularizer": null, "b_constraint": null, "trainable": true, "nb_col": 3, "bias": true, "activation": "linear", "name": "convolution2d_30", "W_regularizer": null, "init": "he_normal", "W_constraint": null}}, {"inbound_nodes": [[["convolution2d_30", 0, 0]]], "name": "batchnormalization_30", "class_name": "BatchNormalization", "config": {"gamma_regularizer": null, "mode": 0, "name": "batchnormalization_30", "beta_regularizer": null, "axis": -1, "momentum": 0.99, "epsilon": 0.001, "trainable": true}}, {"inbound_nodes": [[["batchnormalization_30", 0, 0]]], "name": "activation_30", "class_name": "Activation", "config": {"activation": "relu", "trainable": true, "name": "activation_30"}}, {"inbound_nodes": [[["activation_30", 0, 0]]], "name": "convolution2d_31", "class_name": "Convolution2D", "config": {"subsample": [1, 1], "b_regularizer": null, "dim_ordering": "tf", "nb_row": 3, "nb_filter": 64, "border_mode": "same", "activity_regularizer": null, "b_constraint": null, "trainable": true, "nb_col": 3, "bias": true, "activation": "linear", "name": "convolution2d_31", "W_regularizer": null, "init": "he_normal", "W_constraint": null}}, {"inbound_nodes": [[["convolution2d_31", 0, 0], ["merge_14", 0, 0]]], "name": "merge_15", "class_name": "Merge", "config": {"concat_axis": -1, "mode": "sum", "output_mask": null, "output_shape": null, "name": "merge_15", "arguments": {}, "output_shape_type": "raw", "dot_axes": -1, "output_mask_type": "raw", "mode_type": "raw"}}, {"inbound_nodes": [[["merge_15", 0, 0]]], "name": "batchnormalization_31", "class_name": "BatchNormalization", "config": {"gamma_regularizer": null, "mode": 0, "name": "batchnormalization_31", "beta_regularizer": null, "axis": -1, "momentum": 0.99, "epsilon": 0.001, "trainable": true}}, {"inbound_nodes": [[["batchnormalization_31", 0, 0]]], "name": "activation_31", "class_name": "Activation", "config": {"activation": "relu", "trainable": true, "name": "activation_31"}}, {"inbound_nodes": [[["activation_31", 0, 0]]], "name": "convolution2d_32", "class_name": "Convolution2D", "config": {"subsample": [1, 1], "b_regularizer": null, "dim_ordering": "tf", "nb_row": 3, "nb_filter": 64, "border_mode": "same", "activity_regularizer": null, "b_constraint": null, "trainable": true, "nb_col": 3, "bias": true, "activation": "linear", "name": "convolution2d_32", "W_regularizer": null, "init": "he_normal", "W_constraint": null}}, {"inbound_nodes": [[["convolution2d_32", 0, 0]]], "name": "batchnormalization_32", "class_name": "BatchNormalization", "config": {"gamma_regularizer": null, "mode": 0, "name": "batchnormalization_32", "beta_regularizer": null, "axis": -1, "momentum": 0.99, "epsilon": 0.001, "trainable": true}}, {"inbound_nodes": [[["batchnormalization_32", 0, 0]]], "name": "activation_32", "class_name": "Activation", "config": {"activation": "relu", "trainable": true, "name": "activation_32"}}, {"inbound_nodes": [[["activation_32", 0, 0]]], "name": "convolution2d_33", "class_name": "Convolution2D", "config": {"subsample": [1, 1], "b_regularizer": null, "dim_ordering": "tf", "nb_row": 3, "nb_filter": 64, "border_mode": "same", "activity_regularizer": null, "b_constraint": null, "trainable": true, "nb_col": 3, "bias": true, "activation": "linear", "name": "convolution2d_33", "W_regularizer": null, "init": "he_normal", "W_constraint": null}}, {"inbound_nodes": [[["convolution2d_33", 0, 0], ["merge_15", 0, 0]]], "name": "merge_16", "class_name": "Merge", "config": {"concat_axis": -1, "mode": "sum", "output_mask": null, "output_shape": null, "name": "merge_16", "arguments": {}, "output_shape_type": "raw", "dot_axes": -1, "output_mask_type": "raw", "mode_type": "raw"}}, {"inbound_nodes": [[["merge_16", 0, 0]]], "name": "batchnormalization_33", "class_name": "BatchNormalization", "config": {"gamma_regularizer": null, "mode": 0, "name": "batchnormalization_33", "beta_regularizer": null, "axis": -1, "momentum": 0.99, "epsilon": 0.001, "trainable": true}}, {"inbound_nodes": [[["batchnormalization_33", 0, 0]]], "name": "activation_33", "class_name": "Activation", "config": {"activation": "relu", "trainable": true, "name": "activation_33"}}, {"inbound_nodes": [[["activation_33", 0, 0]]], "name": "convolution2d_34", "class_name": "Convolution2D", "config": {"subsample": [1, 1], "b_regularizer": null, "dim_ordering": "tf", "nb_row": 3, "nb_filter": 64, "border_mode": "same", "activity_regularizer": null, "b_constraint": null, "trainable": true, "nb_col": 3, "bias": true, "activation": "linear", "name": "convolution2d_34", "W_regularizer": null, "init": "he_normal", "W_constraint": null}}, {"inbound_nodes": [[["convolution2d_34", 0, 0]]], "name": "batchnormalization_34", "class_name": "BatchNormalization", "config": {"gamma_regularizer": null, "mode": 0, "name": "batchnormalization_34", "beta_regularizer": null, "axis": -1, "momentum": 0.99, "epsilon": 0.001, "trainable": true}}, {"inbound_nodes": [[["batchnormalization_34", 0, 0]]], "name": "activation_34", "class_name": "Activation", "config": {"activation": "relu", "trainable": true, "name": "activation_34"}}, {"inbound_nodes": [[["activation_34", 0, 0]]], "name": "convolution2d_35", "class_name": "Convolution2D", "config": {"subsample": [1, 1], "b_regularizer": null, "dim_ordering": "tf", "nb_row": 3, "nb_filter": 64, "border_mode": "same", "activity_regularizer": null, "b_constraint": null, "trainable": true, "nb_col": 3, "bias": true, "activation": "linear", "name": "convolution2d_35", "W_regularizer": null, "init": "he_normal", "W_constraint": null}}, {"inbound_nodes": [[["convolution2d_35", 0, 0], ["merge_16", 0, 0]]], "name": "merge_17", "class_name": "Merge", "config": {"concat_axis": -1, "mode": "sum", "output_mask": null, "output_shape": null, "name": "merge_17", "arguments": {}, "output_shape_type": "raw", "dot_axes": -1, "output_mask_type": "raw", "mode_type": "raw"}}, {"inbound_nodes": [[["merge_17", 0, 0]]], "name": "convolution2d_36", "class_name": "Convolution2D", "config": {"subsample": [1, 1], "b_regularizer": null, "dim_ordering": "tf", "nb_row": 3, "nb_filter": 64, "border_mode": "same", "activity_regularizer": null, "b_constraint": null, "trainable": true, "nb_col": 3, "bias": true, "activation": "linear", "name": "convolution2d_36", "W_regularizer": null, "init": "he_normal", "W_constraint": null}}, {"inbound_nodes": [[["convolution2d_36", 0, 0]]], "name": "batchnormalization_35", "class_name": "BatchNormalization", "config": {"gamma_regularizer": null, "mode": 0, "name": "batchnormalization_35", "beta_regularizer": null, "axis": -1, "momentum": 0.99, "epsilon": 0.001, "trainable": true}}, {"inbound_nodes": [[["batchnormalization_35", 0, 0], ["convolution2d_1", 0, 0]]], "name": "merge_18", "class_name": "Merge", "config": {"concat_axis": -1, "mode": "sum", "output_mask": null, "output_shape": null, "name": "merge_18", "arguments": {}, "output_shape_type": "raw", "dot_axes": -1, "output_mask_type": "raw", "mode_type": "raw"}}, {"inbound_nodes": [[["merge_18", 0, 0]]], "name": "convolution2d_37", "class_name": "Convolution2D", "config": {"subsample": [1, 1], "b_regularizer": null, "dim_ordering": "tf", "nb_row": 1, "nb_filter": 1, "border_mode": "same", "activity_regularizer": null, "b_constraint": null, "trainable": true, "nb_col": 1, "bias": true, "activation": "relu", "name": "convolution2d_37", "W_regularizer": null, "init": "he_normal", "W_constraint": null}}], "output_layers": [["convolution2d_37", 0, 0]], "name": "model_1"}}