____________________________________________________________________________________________________
Layer (type)                     Output Shape          Param #     Connected to                     
====================================================================================================
stokes_input (InputLayer)        (None, 112, 4)        0                                            
____________________________________________________________________________________________________
conv_1 (Convolution1D)           (None, 112, 64)       1344        stokes_input[0][0]               
____________________________________________________________________________________________________
conv_2a (Convolution1D)          (None, 112, 64)       20544       conv_1[0][0]                     
____________________________________________________________________________________________________
conv_2b (Convolution1D)          (None, 112, 64)       20544       conv_2a[0][0]                    
____________________________________________________________________________________________________
conv_2c (Convolution1D)          (None, 112, 64)       20544       conv_2b[0][0]                    
____________________________________________________________________________________________________
pool_1 (MaxPooling1D)            (None, 56, 64)        0           conv_2c[0][0]                    
____________________________________________________________________________________________________
conv_3a (Convolution1D)          (None, 56, 128)       41088       pool_1[0][0]                     
____________________________________________________________________________________________________
conv_3b (Convolution1D)          (None, 56, 128)       82048       conv_3a[0][0]                    
____________________________________________________________________________________________________
conv_3c (Convolution1D)          (None, 56, 128)       82048       conv_3b[0][0]                    
____________________________________________________________________________________________________
conv_3d (Convolution1D)          (None, 56, 128)       82048       conv_3c[0][0]                    
____________________________________________________________________________________________________
pool_2 (MaxPooling1D)            (None, 28, 128)       0           conv_3d[0][0]                    
____________________________________________________________________________________________________
conv_4a (Convolution1D)          (None, 28, 256)       164096      pool_2[0][0]                     
____________________________________________________________________________________________________
conv_4b (Convolution1D)          (None, 28, 256)       327936      conv_4a[0][0]                    
____________________________________________________________________________________________________
conv_4c (Convolution1D)          (None, 28, 256)       327936      conv_4b[0][0]                    
____________________________________________________________________________________________________
conv_4d (Convolution1D)          (None, 28, 256)       327936      conv_4c[0][0]                    
____________________________________________________________________________________________________
pool_3 (MaxPooling1D)            (None, 14, 256)       0           conv_4d[0][0]                    
____________________________________________________________________________________________________
conv_5a (Convolution1D)          (None, 14, 512)       655872      pool_3[0][0]                     
____________________________________________________________________________________________________
conv_5b (Convolution1D)          (None, 14, 512)       1311232     conv_5a[0][0]                    
____________________________________________________________________________________________________
conv_5c (Convolution1D)          (None, 14, 512)       1311232     conv_5b[0][0]                    
____________________________________________________________________________________________________
conv_5d (Convolution1D)          (None, 14, 512)       1311232     conv_5c[0][0]                    
____________________________________________________________________________________________________
pool_4 (MaxPooling1D)            (None, 7, 512)        0           conv_5d[0][0]                    
____________________________________________________________________________________________________
flat (Flatten)                   (None, 3584)          0           pool_4[0][0]                     
____________________________________________________________________________________________________
FC2 (Dense)                      (None, 200)           717000      flat[0][0]                       
____________________________________________________________________________________________________
out_T0 (Dense)                   (None, 50)            10050       FC2[0][0]                        
____________________________________________________________________________________________________
out_T1 (Dense)                   (None, 50)            10050       FC2[0][0]                        
____________________________________________________________________________________________________
out_T2 (Dense)                   (None, 50)            10050       FC2[0][0]                        
____________________________________________________________________________________________________
out_vmic (Dense)                 (None, 50)            10050       FC2[0][0]                        
____________________________________________________________________________________________________
out_B0 (Dense)                   (None, 50)            10050       FC2[0][0]                        
____________________________________________________________________________________________________
out_B1 (Dense)                   (None, 50)            10050       FC2[0][0]                        
____________________________________________________________________________________________________
out_v0 (Dense)                   (None, 50)            10050       FC2[0][0]                        
____________________________________________________________________________________________________
out_v1 (Dense)                   (None, 50)            10050       FC2[0][0]                        
____________________________________________________________________________________________________
out_thB0 (Dense)                 (None, 50)            10050       FC2[0][0]                        
____________________________________________________________________________________________________
out_thB1 (Dense)                 (None, 50)            10050       FC2[0][0]                        
____________________________________________________________________________________________________
out_chiB0 (Dense)                (None, 50)            10050       FC2[0][0]                        
____________________________________________________________________________________________________
out_chiB1 (Dense)                (None, 50)            10050       FC2[0][0]                        
====================================================================================================
Total params: 6925280
____________________________________________________________________________________________________
